Android/app/src/main/assets/model.tflite (tflite, 3776 bytes, 4 tensors)

DenseBlock2/DenseBlock2_Dense/bias f4 [9]
0	0x3eabc67b	0.33549866
1	0x3fbbca57	1.4671124
2	0xbfe12f16	-1.7592494
3	0xbf500457	-0.8125662
4	0x3f8e48da	1.1115983
5	0xbe6f89f1	-0.23392464
6	0x3cf7ddac	0.030257069
7	0x3e1f32ce	0.15546724
8	0xbe9e5066	-0.30920714

DenseBlock1/DenseBlock1_Dense/bias f4 [25]
0	0x40748c5a	3.8210664
1	0x40397ee9	2.898371
2	0x4099f483	4.8110976
3	0x40282cc2	2.6277318
4	0x3fdbbe1d	1.7167393
5	0x40a24724	5.071184
6	0xc0027440	-2.0383453
7	0x40738be5	3.8054135
8	0x3f9c23b1	1.2198392
9	0xbe1ffafd	-0.15623088
10	0xc0574dba	-3.364119
11	0xc0b7d196	-5.744334
12	0x3f98be19	1.1933013
13	0x3ec645ee	0.38725227
14	0x3d239db9	0.039945338
15	0xc050877d	-3.2582695
16	0xbfc73e20	-1.5565834
17	0x404ad98d	3.1695282
18	0x3f04433d	0.516651
19	0xbea53905	-0.32270065
20	0xc0088e74	-2.1336946
21	0xc00bdfde	-2.1855388
22	0x3fa8c143	1.3183979
23	0x3fd8cb4f	1.6937045
24	0xc0267223	-2.6007164

model_6/DenseBlock1/DenseBlock1_Dense/MatMul f4 [25, 9]
0	0xc006f1d1	-2.1085093
1	0xc12d9ca5	-10.850743
2	0xc08769bb	-4.2316566
3	0x3f8867f0	1.0656719
4	0x400b9cc6	2.1814437
5	0xc0453f89	-3.0820029
6	0xbf9c3824	-1.2204633
7	0x4079fd99	3.9061034
8	0x3fae6123	1.3623394
9	0xc132a08b	-11.164195
10	0xbf7ffdf2	-0.99996865
11	0xbf810097	-1.0078305
12	0xc074ab41	-3.8229525
13	0x3ebef658	0.3729732
14	0x405b62d0	3.427906
15	0x40417714	3.022893
16	0x404c342e	3.1906848
17	0xc0858bef	-4.1733317
18	0x40424738	3.0355968
19	0xbf8849e7	-1.0647553
20	0x403103cc	2.7658567
21	0xbfc4c5fa	-1.5372918
22	0x40072638	2.1117077
23	0xc0924899	-4.571362
24	0xbfe44fea	-1.7836888
25	0xc13a395f	-11.639007
26	0xc045dc81	-3.0915835
27	0x409b4ae1	4.8528905
28	0xbf9c260a	-1.2199109
29	0xc11c9619	-9.786645
30	0xc0847f8e	-4.1405706
31	0x4099fc35	4.812037
32	0x3fcbc474	1.5919328
33	0x40222819	2.5336974
34	0xbecd7971	-0.40131715
35	0xc11c17f2	-9.755846
36	0xc046f792	-3.1088605
37	0x3fd98f3e	1.6996839
38	0x3c9b8585	0.018984566
39	0xc105cc07	-8.362311
40	0xbf087b32	-0.5331298
41	0x40c6e22e	6.21511
42	0xbebfaed0	-0.3743806
43	0xc0c8aa1b	-6.270765
44	0x3f356d7d	0.7087019
45	0xc0ad4d42	-5.415681
46	0xc073a87c	-3.8071585
47	0x3f65302b	0.89526623
48	0xc0b2237a	-5.5668306
49	0x409d21a8	4.9103584
50	0xc0825aae	-4.0735693
51	0xbf8df258	-1.1089582
52	0xc06b8046	-3.6797042
53	0xbf9bbe31	-1.2167417
54	0xbf628d95	-0.8849729
55	0x4029c445	2.6526043
56	0x40a0004d	5.0000367
57	0x3eac98fa	0.33710462
58	0xbfebe9ee	-1.8430765
59	0xc0ce1fe4	-6.441393
60	0xbe9389bb	-0.28816018
61	0x414849e6	12.518042
62	0x4005efc1	2.0927584
63	0xbf0a399a	-0.53994143
64	0xc097a66b	-4.7390647
65	0xc0529961	-3.2906115
66	0xc11e21ca	-9.883249
67	0x4027890d	2.61774
68	0xbe9ca3d7	-0.3059375
69	0xc03f4d36	-2.9890876
70	0x4062af69	3.5419562
71	0x4032803e	2.7890773
72	0x3f32a28e	0.6977929
73	0xc0c7d971	-6.245293
74	0x408a8256	4.32841
75	0x400775a2	2.1165547
76	0x40df5c70	6.980034
77	0xbfa82925	-1.3137556
78	0x3fdf11fc	1.7427363
79	0xc036caa8	-2.8561192
80	0xc09f0531	-4.9693837
81	0xc08d6a77	-4.419246
82	0x40499099	3.1494505
83	0xc0459e29	-3.0877783
84	0xbff122cf	-1.8838748
85	0xc10f3c74	-8.952259
86	0x3fedccba	1.8578103
87	0x4093f22a	4.623311
88	0x3f9fd1c6	1.2485893
89	0x408d96bb	4.4246497
90	0xbfdb6295	-1.713946
91	0x3d2a7652	0.041616745
92	0xc0150338	-2.3283215
93	0xc12184f1	-10.094956
94	0x3f1c101a	0.6096207
95	0x405c6d09	3.444155
96	0x40bcf790	5.90522
97	0x409e7be5	4.952624
98	0x3e742a46	0.23844251
99	0x3f0aa935	0.5416444
100	0x403c3d28	2.9412327
101	0x40187a22	2.3824544
102	0x40eb17a7	7.3466372
103	0xc065c81e	-3.5903392
104	0xbf1e2193	-0.6176998
105	0x407cc1c3	3.9493263
106	0xbef12413	-0.47097835
107	0x3f96d0b2	1.1782439
108	0x408a2157	4.31657
109	0x403c2530	2.9397697
110	0xc08a51ef	-4.3225017
111	0x40aa2cc4	5.3179646
112	0xc070af30	-3.7606926
113	0xc0e4d026	-7.1504087
114	0xc09f7c52	-4.983926
115	0xc0a13672	-5.037896
116	0xc05c1414	-3.4387255
117	0x3f726026	0.9467796
118	0xc10b28ec	-8.697491
119	0xc026a275	-2.6036656
120	0x3f9146fa	1.1349785
121	0x40abcb12	5.368539
122	0x401155ac	2.270854
123	0xc0e83b7b	-7.257261
124	0x3fcd75e9	1.6051608
125	0xbfaffd9b	-1.3749269
126	0x405fb0dc	3.4951696
127	0xbffe7c9e	-1.988178
128	0x40ab8302	5.359742
129	0xc11612ae	-9.37956
130	0x40cd9992	6.4249964
131	0xbfb7453a	-1.4318001
132	0xc0015ef7	-2.0214212
133	0xc065a437	-3.5881479
134	0xc0b3995f	-5.612472
135	0x406f9257	3.7433069
136	0xbed761b6	-0.42066735
137	0xc05566d2	-3.3344007
138	0x3fbe31fd	1.4859005
139	0xc0770fd9	-3.8603423
140	0x40fb0b9c	7.845167
141	0x3fc96076	1.5732563
142	0x3ff23fa4	1.8925672
143	0xc09c1ec7	-4.878757
144	0x408023ed	4.0043855
145	0xbff24706	-1.8927925
146	0xc0ba1875	-5.8154855
147	0xc0a52835	-5.161158
148	0x4024aa41	2.5728915
149	0xc0d2df0e	-6.5897284
150	0xc002399c	-2.0347662
151	0x40e98ca5	7.2984185
152	0xbfdc8819	-1.7229034
153	0x408254fb	4.0728736
154	0xbf9919a1	-1.1960946
155	0xc047f97b	-3.124602
156	0xbeb467ff	-0.35235593
157	0x404a36ca	3.159594
158	0xc09e2f6b	-4.9432883
159	0xbfdd03ad	-1.7266747
160	0xc0de1c51	-6.9409566
161	0xc020d99c	-2.5132818
162	0xbedbac4d	-0.42904893
163	0xbfb81a4d	-1.4383026
164	0x40c1bbd8	6.05418
165	0x40847ace	4.139991
166	0xbf48c07b	-0.784187
167	0xc07383ed	-3.804927
168	0xc0e09205	-7.0178246
169	0x3f36b964	0.71376634
170	0xc0efecde	-7.4976645
171	0x408555d8	4.166729
172	0x400cf168	2.2022343
173	0xc08b835b	-4.3597846
174	0xbf39b5e3	-0.7254316
175	0xc0737f9b	-3.8046634
176	0x3fdab182	1.7085421
177	0xc0d6deca	-6.714696
178	0x3f88824a	1.0664761
179	0x401710c3	2.360398
180	0xc02c530c	-2.6925688
181	0x3f8bad10	1.091219
182	0xc0d5213d	-6.6603074
183	0x4104a78f	8.290908
184	0xc0d58578	-6.6725426
185	0xc01c86ab	-2.4457195
186	0xbfc94fa9	-1.5727435
187	0x405d9a49	3.4625418
188	0x407bc6fe	3.9340205
189	0xc0985366	-4.7601805
190	0x412087aa	10.033121
191	0x3f8fe84f	1.124277
192	0xc0193812	-2.3940473
193	0xc0b0da34	-5.526636
194	0x4107045e	8.438566
195	0xbf140c1f	-0.57830995
196	0xc084b58d	-4.147162
197	0x406b8597	3.6800287
198	0xc11de46c	-9.868267
199	0x403293af	2.790264
200	0xc103f858	-8.248131
201	0x402ad990	2.669529
202	0x41325990	11.146866
203	0xbf9cae6f	-1.2240733
204	0xc10698bc	-8.412289
205	0x3d276be0	0.040874362
206	0x4030a6bb	2.7601764
207	0xc00f163e	-2.2357326
208	0x40a6fca1	5.2183385
209	0xbfee857d	-1.8634487
210	0xbfd2d25a	-1.6470444
211	0x3f637516	0.88850534
212	0xc004a28a	-2.0724206
213	0xc0a555eb	-5.166738
214	0x40c42140	6.129059
215	0xc00e305a	-2.2217011
216	0x40a8bbbf	5.272918
217	0x3ee62eda	0.4495762
218	0xc0c355fc	-6.104246
219	0xbfaf0a1e	-1.3674963
220	0x3e85f6e3	0.26164922
221	0x3fbac85a	1.4592392
222	0xc0b588c0	-5.672943
223	0xc09ab9f9	-4.8352017
224	0x4012731b	2.2882755

model_6/DenseBlock2/DenseBlock2_Dense/MatMul f4 [9, 25]
0	0x40dc6bda	6.8881655
1	0xc1b6a593	-22.830847
2	0x40087a57	2.132467
3	0x408a9a9f	4.3313746
4	0x408d1e6b	4.409963
5	0x3f2dcf5e	0.6789454
6	0x3e257bc9	0.16160502
7	0xc070e5cb	-3.7640254
8	0xc06a0fc4	-3.6572123
9	0x407df254	3.9679155
10	0x407c0bb3	3.938214
11	0x4012409b	2.2851932
12	0xc0abe3fa	-5.371579
13	0x40369041	2.8525546
14	0xbf481881	-0.7816239
15	0xc0ad24a6	-5.4107237
16	0xc13f3f50	-11.952957
17	0xc08f2ba3	-4.4740767
18	0x40e8980a	7.2685595
19	0x3f461bc3	0.7738611
20	0xbef56490	-0.47928286
21	0xc09d9d77	-4.925472
22	0xc15903d8	-13.563438
23	0x409bdaff	4.870483
24	0xbdb48f15	-0.08816353
25	0xc1dbda7a	-27.481678
26	0x40b06f63	5.513597
27	0xc02947b0	-2.6450005
28	0x3f0dac8b	0.55341405
29	0x3ea42bb6	0.320646
30	0xc11c1d04	-9.757084
31	0xbf0b2d86	-0.5436634
32	0xc051a542	-3.2757115
33	0x40e36038	7.1054955
34	0xc01541a3	-2.3321311
35	0xc113bcc2	-9.233583
36	0xbf4dee5a	-0.8044182
37	0xc0072054	-2.1113482
38	0xc15bdbd9	-13.741174
39	0x408faa03	4.4895034
40	0x409c86c5	4.8914514
41	0x409996c4	4.799654
42	0x3ffef881	1.9919587
43	0xc08b5620	-4.3542633
44	0x3f49c0d7	0.78809875
45	0x40904706	4.50867
46	0xc0701eed	-3.7518876
47	0x41a716a7	20.88606
48	0xc01d0c99	-2.453894
49	0xbf81717b	-1.0112756
50	0x409f751d	4.983046
51	0xbf330e3f	-0.6994361
52	0x3f4d2822	0.8013936
53	0xc1975bfb	-18.919912
54	0xbe454300	-0.1926384
55	0x40729176	3.7901282
56	0x3ebdb4d8	0.37052035
57	0x3fbc7a94	1.4724908
58	0xc0a28247	-5.078403
59	0xc079fb33	-3.905957
60	0x4030059b	2.7503421
61	0xc0be73f8	-5.9516563
62	0x407f4afe	3.9889522
63	0x403aef08	2.9208393
64	0x3fabae0c	1.341249
65	0x3f115116	0.5676435
66	0xc182053b	-16.252554
67	0x40849d2d	4.1441865
68	0x4012dfd3	2.2949111
69	0x405afe66	3.4217772
70	0x40aafad1	5.343117
71	0xc006405e	-2.0976787
72	0xc1966a34	-18.801857
73	0x40f597a8	7.6747627
74	0xc1360baa	-11.377848
75	0xbfa6a786	-1.3019874
76	0x3c303331	0.0107543925
77	0xc05b41b3	-3.425885
78	0x405b9b8f	3.4313695
79	0xc15fab27	-13.979285
80	0x40548b06	3.3209853
81	0xc00242cd	-2.0353272
82	0xc1b64792	-22.784946
83	0x3fa6bef6	1.3027027
84	0x3d988cf9	0.074487634
85	0x411395cb	9.224071
86	0x404419cd	3.0640748
87	0xbf74d540	-0.95637894
88	0x40e24c31	7.0718007
89	0xc1070ceb	-8.440654
90	0xbe8fdab5	-0.28096548
91	0x3f94d61a	1.1627839
92	0x40350f14	2.8290453
93	0xc0849eb7	-4.1443744
94	0x3fd2901a	1.6450226
95	0xbfeec076	-1.8652484
96	0x401bcab9	2.4342482
97	0x411fd85a	9.99032
98	0xbe0c4460	-0.13697958
99	0xbd8cb221	-0.06869913
100	0x409e6268	4.9495125
101	0xc011192d	-2.2671616
102	0xc02ee1b8	-2.7325268
103	0xbf4d7561	-0.8025723
104	0x402df06b	2.717799
105	0xc02856a3	-2.630288
106	0xbfb93e8c	-1.4472213
107	0x3fef9b78	1.871932
108	0x404a2c27	3.1589448
109	0xc131d0f8	-11.113518
110	0xc0c08f46	-6.0174894
111	0x4096980d	4.706061
112	0xc134761c	-11.278835
113	0xc0cf4577	-6.4772296
114	0xc0b8c013	-5.7734466
115	0x3f99b65d	1.2008778
116	0xc01d17a1	-2.4545672
117	0x40aea10c	5.457159
118	0x3ffb1d19	1.9618255
119	0xc11b5c17	-9.709983
120	0xc174e692	-15.306292
121	0x3face0ac	1.3506064
122	0x4022fa99	2.5465453
123	0xc017e6dd	-2.3734658
124	0x40d919b4	6.7843876
125	0xc02c3ae3	-2.6910942
126	0xbe2fbbd5	-0.17161496
127	0x3fc5f4a4	1.5465283
128	0x40d7cbd7	6.743633
129	0xc035464c	-2.8324156
130	0xc0dc7810	-6.889656
131	0xc0365d50	-2.8494453
132	0x40012979	2.0181563
133	0xc00a1abf	-2.1578825
134	0x3eff54fc	0.49869525
135	0xc074f693	-3.8275497
136	0x3f305fe2	0.68896306
137	0xc181dfd7	-16.234297
138	0x40b56f7f	5.6698604
139	0x41002611	8.009294
140	0xc086da7a	-4.2141695
141	0xc1b749c4	-22.911018
142	0xc15e72fa	-13.90307
143	0x409d8c11	4.923348
144	0x3f07e138	0.5307803
145	0x402ededc	2.7323523
146	0x40cbc6a5	6.3679986
147	0x405ba072	3.4316678
148	0xc030a90b	-2.7603176
149	0x40bb5b1d	5.854872
150	0xc0a881f1	-5.265862
151	0x40868683	4.20392
152	0x403896b9	2.8841994
153	0xc04382d1	-3.0548594
154	0xc0493074	-3.1435823
155	0xbe6916e0	-0.22762632
156	0xbed79ec8	-0.42113328
157	0x410887aa	8.533121
158	0xbe385a88	-0.18003285
159	0x404b6f33	3.178662
160	0xc04ff4ca	-3.2493157
161	0xbfe2109b	-1.7661318
162	0x40f5ab5b	7.6771674
163	0xc180c8c0	-16.098022
164	0xc085b3cd	-4.1781983
165	0xbfa948c2	-1.3225329
166	0x41469698	12.411766
167	0xbfbeaf3b	-1.4897226
168	0xbffb2341	-1.9620134
169	0xc0ba5b98	-5.823681
170	0xc0bd8df1	-5.923577
171	0x40620888	3.5317707
172	0xc1ce8d61	-25.819033
173	0xbfe3a7fe	-1.7785642
174	0xc1964c0f	-18.787138
175	0xbe978e1e	-0.29600614
176	0xc0633f86	-3.5507522
177	0xc198e7c4	-19.113167
178	0x40480d1a	3.1257997
179	0x40adbad1	5.4290547
180	0x3f27794a	0.6541945
181	0x408a9539	4.3307157
182	0x3f91b0cf	1.1382083
183	0x4081f4b9	4.0611234
184	0xbf92e0c1	-1.147484
185	0x4015aaee	2.3385577
186	0x3eba06b4	0.3633324
187	0x3e57c39f	0.21070717
188	0x4041c2f1	3.0275233
189	0x4041fea6	3.0311675
190	0x40019905	2.0249646
191	0xc0568044	-3.3515787
192	0xc0d892ce	-6.7679205
193	0x40879504	4.2369404
194	0x40190400	2.3908691
195	0xbf254a18	-0.64566183
196	0xc08fda85	-4.4954247
197	0x407572c5	3.83513
198	0xc110b157	-9.043296
199	0xc0f83124	-7.7559986
200	0x407c524f	3.9425237
201	0x3fddb460	1.7320671
202	0x40ba8c12	5.8295984
203	0xc1b87e44	-23.061653
204	0x40069121	2.102608
205	0x4069386e	3.6440692
206	0x3f443d85	0.7665637
207	0xc044c6ff	-3.0746458
208	0xc0971f94	-4.7226048
209	0x4018e35c	2.388877
210	0xc12522ee	-10.321028
211	0xbee606e0	-0.4492712
212	0x40219f37	2.5253427
213	0xc0902d45	-4.505526
214	0xc020e821	-2.514168
215	0x40cff925	6.499163
216	0x4169f39e	14.621977
217	0x3fd1e375	1.6397539
218	0xc1d394ef	-26.447721
219	0xc0f27685	-7.5769677
220	0xc040565e	-3.0052714
221	0xbe9e7da5	-0.30955234
222	0xc049f995	-3.1558583
223	0x40a13a4e	5.0383673
224	0x4085ffa9	4.1874585
